predict model/model_save/lstm_model.pth (torch, 45926 bytes, 5 tensors)

lstm.weight_ih_l0 f4 [200, 2]
000000 95 24 70 be 06 48 e9 3c be 52 9e bd fb f8 13 3e
       -0.23451455 0.028476726 -0.077306256 0.14450447
000010 3a ee 90 bd 96 bc 14 be 45 94 1a be 46 32 b2 bd
       -0.07076688 -0.14525065 -0.15095623 -0.08700995
000020 95 80 3a 3e 09 77 24 3e 7f e6 77 bd a3 9a 2b bd
       0.18213113 0.16061033 -0.060522553 -0.04189552
000030 42 44 69 be 70 9e ee bd 17 2f 99 bd 7e 18 b5 bd
       -0.22779945 -0.11651313 -0.07479685 -0.08842562
000040 b4 5c 91 bd 18 99 bb bd ed bb 86 3e 51 76 33 bd
       -0.0709776 -0.0916006 0.2631525 -0.043814007
000050 88 6f 4b 3e f9 1c 50 b9 bc e6 0b 3e 37 8d fe 3d
       0.19866765 -0.00019847219 0.13662237 0.12429278
000060 35 ab 27 bd 2e 74 ed bd 0f 74 9c 3c 05 c2 3a be
       -0.04093476 -0.11594425 0.01909831 -0.18238075
000070 dd 64 b9 3d 84 e0 e4 3d 9d 27 e4 3d b5 8c d9 bc
       0.09052441 0.111756355 0.11140368 -0.026556352
000080 fe a6 35 be 84 47 61 be d7 1c d1 bd 73 fb 86 3b
       -0.17739484 -0.21999937 -0.10210579 0.0041193306
000090 a9 7b b0 bc 22 bc d5 bb bf 65 29 be 3e 75 e6 bd
       -0.02154334 -0.0065226713 -0.1654272 -0.11252831
0000a0 43 19 98 3e 51 41 2d 3c fb cd ee 3d 8c d3 bf 3d
       0.29706773 0.010574655 0.116603814 0.09366521
0000b0 b3 62 dd 3d 57 28 f8 3d 7a 3d ac 3b ee 9b d3 3d
       0.10809841 0.12117069 0.005256352 0.103324756
0000c0 0a d6 ea bc 9b 6e 6d bd 3a f2 65 3e 45 61 bc 3d
       -0.028666515 -0.05796681 0.22455683 0.0919824
0000d0 1c 89 18 3e 50 e2 36 3e 1d dd 38 be 8c e0 30 be
       0.14896053 0.17859769 -0.18053098 -0.17273158
0000e0 d9 c1 97 3c 96 7e 9e bd 7e 81 8d 3e 2d 00 46 3d
       0.018525051 -0.07738988 0.27637857 0.04834001
0000f0 c5 97 05 be 72 46 d9 3d 47 c3 0d 3e 42 62 f0 3d
       -0.13046177 0.106091395 0.13844024 0.11737491
000100 b7 5f 02 3b a2 df 48 3c d4 84 44 3d 38 0c d9 3c
       0.0019893476 0.0122603495 0.047978237 0.026495084
000110 b8 cf 17 3e d6 2b 55 bc f5 0c 76 3d ae 95 48 bd
       0.14825332 -0.01301094 0.06007095 -0.04897087
000120 5a 34 1d 3e d7 8c c2 3d 6d ad d7 3d 2f 28 03 3d
       0.15352002 0.09499519 0.10531125 0.032020744
000130 a7 a7 3e 3d 73 c0 0f 3c bd 16 51 3e 9f 2f 9c bc
       0.046546604 0.008773911 0.2041883 -0.019065676
000140 6f 94 71 be d2 3c 18 3e 41 5e 24 3e d7 de ce 3d
       -0.23591779 0.14866951 0.1605158 0.10101097
000150 97 c1 72 3e 44 8d ab bd 66 7a 80 3e 93 96 f3 bc
       0.23706661 -0.08376554 0.25093383 -0.029734885
000160 a2 db 82 3d 8a 32 97 3d 82 88 01 be 34 d3 bb 3d
       0.06389548 0.073826864 -0.1264973 0.09171143
000170 f2 1a d6 bd be de fb bd 5b 59 1c 3e 7e 44 8b 3d
       -0.10454358 -0.12298344 0.15268461 0.06800173
000180 7c 2b 4b 3e ae 77 0e 3d e4 53 e2 3c 7e 89 09 3b
       0.19840807 0.034782104 0.027627893 0.0020986493
000190 da 46 6c be 51 a3 85 bd b0 6e 12 bc ad 6a 9d 3d
       -0.23073903 -0.06525291 -0.008937523 0.076863624
0001a0 aa 7e 3a be 19 1e fc bd c5 e5 8f 3d c1 55 64 bc
       -0.18212381 -0.12310428 0.07026247 -0.013936461
0001b0 17 6f b1 3b 53 55 4f 3b bc 3c 6c bd 29 cb 35 be
       0.0054148543 0.003163655 -0.05767511 -0.1775328
0001c0 6f 94 22 be e0 b7 8b bd 97 94 37 bd bf 27 c2 bd
       -0.15876935 -0.06822181 -0.04481944 -0.09480237
0001d0 54 0c 62 bd b6 f1 de 3d 32 f4 6c 3e fc 78 c5 bd
       -0.05518754 0.108859465 0.23140028 -0.096422166
0001e0 c8 f8 2a 3d b2 4a b4 3d b5 97 6b 3b 5d 95 d1 3b
       0.041741163 0.088033095 0.0035948579 0.0063959793
0001f0 45 5e 85 3d 0a 5e d2 bd a2 e8 66 bd 68 aa 1b be
       0.06512121 -0.10271843 -0.0563742 -0.15201724
000200 f3 63 75 3e 52 ef 27 3e df af 86 3d 98 75 bd bd
       0.23963909 0.16399887 0.065765135 -0.09250945
000210 be 4c 2e be a7 ca 75 3d b9 a8 1c bd 5c 6c 29 be
       -0.17021462 0.060007717 -0.038246844 -0.16545242
000220 95 5b 8a bd 42 ad 2e bd cb 7a 97 bd 75 78 c2 bd
       -0.06755749 -0.0426457 -0.07396468 -0.094956316
000230 9d 96 a8 3c 3e 1e c3 3c a9 76 85 3d 1a 2e ae bd
       0.02057963 0.023818132 0.06516773 -0.08504887
000240 77 24 32 3e 0a b2 cf bd 59 2e 84 3e 61 77 d2 bd
       0.17396723 -0.1014138 0.2581661 -0.10276676
000250 3a c2 10 be 60 d4 4b 3d b8 42 0b 3e 0c 8c f4 bd
       -0.14136592 0.049763083 0.1359967 -0.11940774
000260 f0 7b 78 3e fb 27 d6 bd 22 30 0a be 57 2c c0 bd
       0.24266028 -0.104568444 -0.13494924 -0.09383457
000270 f5 92 2b 3d 79 86 b0 bd 6b c5 87 3e 37 00 6d 3d
       0.041888196 -0.086193986 0.26517805 0.057861533
000280 ac 9b 1f be 05 59 c6 3d f9 ee 5c 3e a5 d3 22 3e
       -0.15586728 0.09684948 0.21575536 0.15901048
000290 a9 5d 75 3d 9c 76 21 bd 1e a0 27 3e 12 5c b8 3d
       0.059903774 -0.039419755 0.16369674 0.09001936
0002a0 b5 d2 f8 3c 29 4b 33 bd d1 4f 0e 3d bc 23 e6 bc
       0.03037391 -0.04377285 0.034744088 -0.028093211
0002b0 b1 fd f0 3c 70 1b a1 bd 8a 04 2d 3e bd df cc bd
       0.029417844 -0.078665614 0.16896263 -0.10003612
0002c0 ba 8a f0 3d db 15 a8 3d 84 96 85 3e a5 76 18 3e
       0.1174521 0.082072936 0.26091397 0.1488901
0002d0 a5 a1 8f bd 3a 3f 20 bc a5 cd d2 3c c8 f2 88 3d
       -0.07013253 -0.009780699 0.025732825 0.06686932
0002e0 9f 5f 84 3e 59 54 bf bc d8 57 2d 3e cd ce 80 bd
       0.25854203 -0.02335565 0.16928041 -0.06289444
0002f0 69 05 b4 bd 1a cc 03 be de 53 7a 3d cf 82 06 be
       -0.087900944 -0.12870827 0.06111514 -0.13135837
000300 90 06 52 3d 94 34 d1 3d c5 b9 d9 3d 41 7f c2 3c
       0.05127579 0.102151066 0.10631136 0.02374232
000310 c0 d9 06 3e 2c 06 fb bd 1d 25 2b 3d 9a 57 f9 bd
       0.13169003 -0.122570366 0.04178344 -0.12174912
000320 eb b5 15 be 61 f4 0c 3d fe e8 9c bc 1b 34 b2 3c
       -0.14620177 0.034412745 -0.019154068 0.021753361
000330 ed 8a 2d 3d 61 a7 a8 bd 18 3e 65 3e 9f a9 e3 3a
       0.042368818 -0.0823505 0.22386968 0.0017369277
000340 9d 0a 33 3e 57 a8 bb 3d ca ef fe bb 79 c9 15 3e
       0.17484517 0.09162968 -0.00778005 0.14627637
000350 d5 ff 6f 3d 12 1c 7e 3c 01 75 29 bd 84 17 3b be
       0.05859359 0.015509622 -0.04137135 -0.18270689
000360 d7 4a 84 3d e9 ba bf 3d d5 7f 1b 3e cd 30 a4 bd
       0.06459587 0.09361822 0.15185483 -0.080171205
000370 14 62 41 3e e4 78 ca bd 70 17 40 3a b3 2c 57 3d
       0.1888507 -0.09886339 0.0007327711 0.052532863
000380 c4 00 00 3e 1f 13 b3 bc d8 e9 98 3d 90 d1 5e be
       0.12500292 -0.021859704 0.07466477 -0.21759629
000390 47 f2 0a 3e d9 ba b9 3d ad 9c 77 3e d5 70 99 3d
       0.13568984 0.090688415 0.24180861 0.07492224
0003a0 b1 2a ef 3c ce 5b 81 3d 59 a4 d8 3d b3 3c fa 3d
       0.029195162 0.063163385 0.10578222 0.12218609
0003b0 a0 4d 19 3e 19 05 a7 bd 2c 82 a3 3d d1 c8 1a bd
       0.14971018 -0.08155269 0.07983813 -0.03778917
0003c0 2d ac 5c be b0 70 94 bc 41 bc 88 3e 9c ff 16 bd
       -0.21550055 -0.01812014 0.26706126 -0.03686486
0003d0 b9 79 80 3e d8 96 ba bd 16 eb 7b be d8 6f d4 3d
       0.25092867 -0.091108024 -0.24601397 0.10372895
0003e0 6c 6a 09 be 13 9e be bc 3e 3b 04 be 14 36 74 bd
       -0.13419503 -0.023268735 -0.12913224 -0.059621885
0003f0 95 23 8a be 00 63 e4 3d 13 9c bd bd f7 02 44 bd
       -0.26980272 0.11151695 -0.092582844 -0.04785439

lstm.weight_hh_l0 f4 [200, 50]
000000 bd b9 6d 3e ed 41 42 3d 15 96 4b bd 86 e4 c2 bd
       0.23215385 0.047426153 -0.049703676 -0.09516244
000010 f4 7b 32 3d ac 4f c2 bd 72 07 40 be 52 7e 34 bd
       0.043575242 -0.094878525 -0.1875284 -0.04406578
000020 b4 2f 82 bd 36 5f d3 bd 32 96 64 bd 79 ba 25 bd
       -0.06356755 -0.103208944 -0.0558073 -0.040461037
000030 7c 2f 67 be e0 51 2c 3d 5c d6 fe bd ab dc 14 be
       -0.22576708 0.04207027 -0.124432296 -0.14537303
000040 86 13 ed bc 35 81 01 be ab 85 e8 3c fa 1c f7 3c
       -0.028939974 -0.12646945 0.02838405 0.030165184
000050 4f 00 7a bd 90 18 b8 bc 60 dc 63 3d e7 a7 ce 3d
       -0.06103545 -0.02247265 0.055630088 0.100906186
000060 f0 e6 8e 3d b4 81 09 bc 70 4b 5a 3e ee ca 0d 3c
       0.069776416 -0.00839274 0.2131784 0.008654339
000070 35 9b 82 3d e2 b9 4e 3d 93 ff 9f bd bd 50 0f 3e
       0.0637726 0.05047024 -0.07812419 0.13995643
000080 8c 4e 73 3d d3 fe d2 3b 8d 4c c1 bd ca 3e 14 be
       0.05940108 0.006439069 -0.09438429 -0.14477077
000090 97 bd dc 3c 62 ca ba 3d 84 2b 36 be c4 cc fe bb
       0.026945872 0.09120633 -0.17790037 -0.007775875
0000a0 d6 a4 20 3e 4a b5 a9 bc 27 2b a8 bb 56 4d 3d 3e
       0.1568788 -0.020716328 -0.0051320973 0.18486533
0000b0 ab c9 94 3d 4a e4 35 3e 07 fb ce 3c 26 3f 1e bd
       0.072650276 0.17762867 0.025266184 -0.03863444
0000c0 c9 dd 13 3e e8 3f 15 3d 92 35 27 be 0a 3a f0 bb
       0.14440073 0.0364379 -0.16329029 -0.0073311375
0000d0 27 ca 96 3d 08 76 37 bc 00 73 0a bc d0 3e 14 bd
       0.07362776 -0.011197574 -0.00845027 -0.036192715
0000e0 6b 20 05 3e 03 3c c7 3d c0 56 78 bd 21 11 76 3c
       0.13000648 0.09728243 -0.060629606 0.015018732
0000f0 78 01 30 3c fa 20 fb bd 78 2a 94 bd a8 8c 57 3e
       0.010742538 -0.12262149 -0.07234663 0.2104975
000100 05 6a ed 3b 0f 95 79 bd 7a 9a b7 3d 1d 08 33 bc
       0.0072453045 -0.06093317 0.08965011 -0.010927227
000110 d1 40 96 3d 78 34 7c 3c 3d 83 59 bc d1 3c bc ba
       0.073365815 0.015393369 -0.013275919 -0.0014361386
000120 c1 dd 0a 3d e5 4f 0a be ea 27 55 bd 85 7d 57 3d
       0.033902887 -0.1350704 -0.05204002 0.05260994
000130 6d c0 5f 3d e7 30 ba bd 95 87 cd 3d 55 12 f5 bc
       0.05462687 -0.09091359 0.10035626 -0.029915968
000140 67 6d 42 3e f0 95 09 3e 83 c1 21 bd 31 2d ba 3d
       0.18987046 0.13436103 -0.039491188 0.09090651
000150 d1 e2 91 bd 7c dd b3 3d dc d3 ba bd 77 0e fc 3c
       -0.0712334 0.08782479 -0.0912244 0.030768616
000160 c4 78 11 3d bf 2c 5e bd 92 78 1b be c6 81 6b bd
       0.03551556 -0.054241892 -0.15182713 -0.05749681
000170 0e 10 78 bb 57 c9 fb bc d3 f4 3d 3c c5 d1 a3 bd
       -0.0037851366 -0.030735655 0.011594015 -0.07998995
000180 9f a0 40 3e 43 c7 54 bc 67 a4 dc bd b9 3c 06 3e
       0.18811272 -0.012986961 -0.10773545 0.13109101
000190 4c 1a 4d bd dd d6 65 bb e2 70 3a be e2 de 26 be
       -0.050073907 -0.0035070695 -0.18207124 -0.1629596
0001a0 a0 be 2a be e9 fd 2f bd 8e bf 44 3c 03 e8 39 be
       -0.1667428 -0.042966757 0.012008561 -0.18154912
0001b0 b1 66 45 3e 89 a9 d4 bd f0 3b 3a bc f4 4e 03 3e
       0.19277455 -0.10383899 -0.011366829 0.12823087
0001c0 f5 e5 fe bc af 7d 35 be 32 63 18 3d b5 f5 7a 3d
       -0.031115511 -0.17723726 0.037203975 0.06126948
0001d0 40 1c 67 3d e2 07 ae bd b4 9e 12 3d f7 b5 83 3d
       0.056423426 -0.08497597 0.035795882 0.064311914
0001e0 3a c9 f4 3d 97 76 f5 bd e1 af d7 bd 0d 2a 19 3d
       0.119524434 -0.1198551 -0.10531593 0.03739362
0001f0 16 59 dd 3c c8 e3 6d bd 03 3d 9f 3d e0 d8 97 bd
       0.027020019 -0.058078557 0.07775309 -0.074144125
000200 3c f2 27 3e 79 0c 73 bc ad 88 f9 3d 39 97 19 bd
       0.16400999 -0.014834517 0.12184272 -0.037497733
000210 52 33 d5 3a aa 5b 80 3d 0d 4d 6a 3c 4f 34 cd bc
       0.0016265905 0.062674835 0.014300597 -0.025049357
000220 0d 77 89 3d 73 a2 0f 3e f8 7c 04 be 2f c1 ca bc
       0.0671216 0.14026813 -0.12938297 -0.02475032
000230 1e c9 24 3e 4e 8c 29 be 79 67 25 be 30 49 55 bd
       0.16092345 -0.16557428 -0.16152753 -0.05207175
000240 00 7c 32 be 21 1b 24 3d af b4 c9 bd 8f 78 01 3e
       -0.17430115 0.040064935 -0.09848916 0.12643646
000250 b4 b9 46 be cf 7a f9 bc 25 79 3f 3e a3 bc 27 bd
       -0.19406778 -0.030454068 0.18698557 -0.040951382
000260 cb bc 05 3c cf 4e a4 bd 50 a7 0f be 61 12 48 bd
       0.0081626875 -0.08022844 -0.14028668 -0.048845652
000270 44 85 d4 bb bc 4b 86 bc d4 04 0b be 8a 3b 24 3d
       -0.006485613 -0.016393535 -0.1357606 0.040095843
000280 c6 a4 de bd 3e ca 1f bd 18 3b e5 3d a7 76 07 be
       -0.10871272 -0.039011233 0.11192912 -0.13228856
000290 b4 18 06 3e 0d 27 74 bd aa 3f 87 3c 99 80 7d 3d
       0.13095361 -0.059607554 0.01650985 0.06189022
0002a0 52 54 1c bd 3e 9a 25 bd 89 44 4e 3d 45 4f 2d bd
       -0.03816635 -0.0404303 0.05035833 -0.042311925
0002b0 6f 3e c1 bd 2a ae b4 3c e2 eb 87 bd a3 ba 08 3d
       -0.094357364 0.022055704 -0.06636788 0.033381116
0002c0 2a 23 74 3d 33 a5 20 bd 0d 6a 89 3d 79 e0 04 3d
       0.059603848 -0.039220046 0.06709681 0.032440636
0002d0 b9 ad 4c be 98 6e 89 bd 83 18 15 be fc 33 90 bd
       -0.19988145 -0.06710547 -0.14560132 -0.07041165
0002e0 60 b0 09 be ed 3f 9f 3d 7e bc 2d be c7 87 98 3d
       -0.13446188 0.07775865 -0.16966435 0.074477725
0002f0 af 73 28 bd c7 ca 85 3d 56 c0 93 bc cf 41 3e bd
       -0.04112595 0.06532817 -0.018036049 -0.04644948
000300 f2 21 f4 3d d8 43 80 3c 02 e6 e2 3d 77 6d 3d 3e
       0.11920537 0.01565735 0.11079027 0.18498789
000310 df fd 02 3d 15 82 82 bc 27 ff fe 3d 00 1b 20 bd
       0.03198039 -0.015931169 0.1245101 -0.03908825
000320 9c 95 cd bc 59 bc c4 bd af 8c 1c bd ca 96 a7 bd
       -0.025095753 -0.09606237 -0.038220104 -0.081830576
000330 64 7c bc 3d db 93 f9 bd 43 af 26 bd 1a 5c ce 3d
       0.09203413 -0.12186404 -0.040694486 0.10076161
000340 f2 5d 27 3d e7 7c e4 3d 35 f4 48 bd 42 58 55 3d
       0.040861078 0.11156636 -0.04906102 0.052086122
000350 e6 25 a0 3d 17 7d 77 3d ca 08 71 3d 59 29 d6 3d
       0.078197286 0.06042203 0.058846273 0.10457105
000360 d5 cf b5 3d 48 4a ab 3c 2f be 95 bc b8 5c a8 bd
       0.088775314 0.020909443 -0.018279163 -0.0822081
000370 1e db 0b be 89 09 dc bd 2f 7e b1 bd a3 56 24 be
       -0.13657805 -0.10744006 -0.08666646 -0.16048674
000380 0b 71 35 bc 6f 82 e4 3d 85 1a 32 3d 2d 53 4b be
       -0.011074315 0.11157691 0.043482322 -0.19855948
000390 a6 02 f0 bb 68 11 74 3d f5 67 f9 bc 33 98 96 3d
       -0.0073245345 0.059586912 -0.030445078 0.073532484
0003a0 01 25 38 bd 3a 88 09 b8 c5 42 9b bd a1 e0 a7 bc
       -0.044957165 -3.2790216e-05 -0.07581095 -0.020492854
0003b0 35 3d 83 3d 8e 1c c2 3d 58 51 aa bd 2e fd 0d be
       0.06408159 0.094781026 -0.08316296 -0.13866112
0003c0 2e 8c 99 bd eb df 39 bd e6 af 1f 3e 95 52 e8 3d
       -0.0749744 -0.04537956 0.15594444 0.11343876
0003d0 e7 00 e6 3d bc 87 ce bd cb ea 7a bd b9 ac 0d be
       0.11230641 -0.10084483 -0.061259072 -0.1383542
0003e0 a7 19 18 be 17 ee 05 3e 11 8d 8b 3b 54 1f c3 3d
       -0.14853536 0.13079105 0.00425876 0.0952746
0003f0 56 28 c8 bc 36 4b 94 3d 5e 5d 69 3d d4 92 1b 3e
       -0.024433296 0.07240908 0.056973808 0.15192729

lstm.bias_ih_l0 f4 [200]
000000 01 a0 91 bd ef 0d 49 3d 2c 26 8f bd a5 8d a8 3c
       -0.071105964 0.049085554 -0.069897026 0.020575354
000010 2b bf 83 3d 2c 1d 5a 3d d4 37 b1 bd 2f d5 3e be
       0.06432947 0.053250477 -0.086532265 -0.1863601
000020 f5 6e 09 be 54 b4 34 3d 17 ab 3c bd 71 be 42 3d
       -0.13421233 0.044117287 -0.0460616 0.0475449
000030 2b 06 f2 bd 2e 5d d4 3c e6 cc e3 3b 1b 5d a5 bc
       -0.11817583 0.025923338 0.006951916 -0.020185998
000040 a7 a6 ea bc b4 5a 11 3d 21 54 35 be ae ee 1c be
       -0.02864392 0.035486892 -0.17707874 -0.15325424
000050 ec 13 41 bd 58 95 28 3e 22 e4 21 bc 69 2b bb bd
       -0.04713814 0.1646322 -0.009881051 -0.09139139
000060 b5 8c a7 bd d3 36 84 bd 93 e6 84 bd e6 b1 e2 bd
       -0.081811346 -0.064557694 -0.06489291 -0.11069088
000070 ba d1 56 bd 17 8b e4 bd c9 e3 47 bd 3a 9b ed 3c
       -0.052446105 -0.11159342 -0.048801217 0.029004682
000080 8d 51 b3 3a a8 6f ba bd b4 c9 e1 3d 59 14 53 3d
       0.001368092 -0.09103328 0.110248 0.051533077
000090 d9 da 2b bd 15 fe 0c bd 87 2d 13 3d 06 80 3b 3e
       -0.041956756 -0.034422 0.03593209 0.18310556
0000a0 07 77 b8 3b 6f f8 e7 3b 14 72 89 bd 6c 29 09 3e
       0.0056294235 0.007079176 -0.06711212 0.13394707
0000b0 cb 89 e9 bc 05 6d d4 3d 84 5e 94 3d 5e 9e f5 bb
       -0.028508088 0.10372356 0.0724459 -0.0074956855
0000c0 fa a7 99 3d d0 b9 fc 3d 84 2c 08 3e 7d fb c6 3d
       0.07502742 0.123401284 0.13298231 0.09715936
0000d0 ee 2e 6a bc 75 1a 85 3a 58 a4 45 bb 48 ad 8c bd
       -0.0142934155 0.001015498 -0.003015777 -0.06868988
0000e0 e8 7e 17 be 8a 23 da bd 5e 4f fb bd 25 0b cb 3c
       -0.14794505 -0.1065131 -0.122709975 0.024785588
0000f0 f4 0e 18 3c 45 42 02 3e 11 01 f1 bd 3a 6b 30 bd
       0.009280909 0.12720592 -0.117677815 -0.04307101
000100 cc 8f e8 3d 01 b8 ad 3d 6b a2 8a bc 51 37 32 be
       0.11355552 0.084823616 -0.01692315 -0.17403914
000110 87 08 93 bd d2 ec 86 3d a6 4c 6f 3d 1b 2d 1a bd
       -0.07179361 0.06588139 0.058422707 -0.037640672
000120 3d 74 1b 3e 12 fe 07 3e ab 2c f0 bb 3b 45 fc bc
       0.1518106 0.13280514 -0.0073295436 -0.03079473
000130 93 8b c2 3d f4 50 d3 bc 85 2b 9c bd eb d8 e8 bc
       0.09499278 -0.025795437 -0.07625488 -0.028423747
000140 0e 5f b0 3b ac 08 6f bd fe 59 88 bd f7 bb 80 bd
       0.005382425 -0.05835788 -0.0665779 -0.062858514
000150 fe 17 63 bd e7 76 11 bd 31 64 0d be 4b cc 32 3d
       -0.055442803 -0.035513785 -0.13807751 0.04365186
000160 a2 a0 5c bd b6 ac d2 3d 03 09 f2 3d 99 2e b2 bd
       -0.05386413 0.10286848 0.11818125 -0.08700294
000170 d0 01 c9 bd 14 1b 4f bd 03 59 0e be 01 f5 b7 3d
       -0.09814799 -0.050562933 -0.13901143 0.08982278
000180 5b 18 06 bd 7c a9 d1 3d 3c db 0d be 5c 9d e1 bd
       -0.03273807 0.10237405 -0.13853163 -0.11016342
000190 26 cb 09 3e 6a 96 f4 3d c5 8d 4c 3d 2a c4 14 3c
       0.13456401 0.11942752 0.04993989 0.009079972
0001a0 1d d7 7b bd a8 7c 90 bd 91 ee 15 be 06 97 7c 3d
       -0.061484445 -0.07055026 -0.14641787 0.061667465
0001b0 45 5c 4d bd 25 82 12 3e 64 62 9d 3d 11 cb e5 bd
       -0.050136823 0.14307459 0.07684782 -0.112203725
0001c0 18 3e b8 bd c3 83 67 3d 6e b9 52 3d 34 14 b8 bd
       -0.089962184 0.056522142 0.05144637 -0.089882284
0001d0 63 cd 80 3d 36 9b 75 bd cc b5 08 bd 20 5c 26 bd
       0.062891744 -0.059962474 -0.0333765 -0.0406152
0001e0 cf 87 ed bd e5 64 2e 3d fa 11 10 3e c1 41 33 bd
       -0.11598169 0.04257669 0.14069358 -0.04376388
0001f0 e2 b8 cd bd 1d 66 5d bd 0f 27 fb bc af 22 3d bc
       -0.10045029 -0.05405246 -0.030658273 -0.011543914
000200 a4 04 0f be 3a 2c 00 be 3e 49 c0 bd 5e aa 65 bc
       -0.13966614 -0.12516871 -0.0938897 -0.0140176695
000210 e5 7e b1 bd ce 28 e7 bd 10 a8 0e bd 89 b5 40 3d
       -0.08666781 -0.1128708 -0.034828246 0.047048125
000220 0b 26 35 3d 5a b8 22 be c8 d0 0c bd d8 62 30 bc
       0.044225734 -0.15890637 -0.034378797 -0.010765754
000230 87 58 fb 3d 66 01 9d bc 24 5f 9c 3d 1f 9e 9a bd
       0.122727446 -0.019165706 0.07635334 -0.075496905
000240 46 1f b8 3b 6b d0 1a bd 23 43 e9 3c 05 5c 49 bd
       0.0056189625 -0.03779642 0.028474396 -0.049160022
000250 93 42 a2 3d 07 b1 d0 3c 49 5b ac bd 6f 3d ea bd
       0.07922854 0.025475038 -0.08415849 -0.11437499
000260 e9 b1 38 be ec 24 aa 3d e1 ba aa 3d b4 8b a4 bd
       -0.18036617 0.083078235 0.083364256 -0.08034459
000270 03 a7 5c bd 94 31 91 3d 62 61 22 bc 06 c3 8e 3d
       -0.053870212 0.070895344 -0.009910913 0.069707915
000280 76 07 82 3d 00 2f 93 bd 3c 66 04 be 15 d8 4f bd
       0.06349079 -0.07186699 -0.12929624 -0.05074318
000290 96 e2 74 bd 13 68 b2 bc 5d 40 48 be c2 a4 94 bb
       -0.0597864 -0.021778142 -0.19555803 -0.004536242
0002a0 27 91 a1 bc 0c 00 45 be 56 06 3d 3e 51 c7 d2 3b
       -0.019722534 -0.19238299 0.18459448 0.006432452
0002b0 38 c3 b3 3c fb 1b b1 3d de cf 1e be ff f3 d8 3d
       0.021943673 0.08647915 -0.15508983 0.105934136
0002c0 e4 8a 48 3e f7 63 78 3d a5 fa e3 bd 14 b5 08 3e
       0.19584233 0.06064221 -0.11131791 0.13350326
0002d0 c5 1b d3 bd 28 77 51 3d 04 25 a6 3d ac d0 c6 bd
       -0.10308031 0.051139027 0.08112529 -0.0970777
0002e0 ce 03 56 bd f1 34 63 bd c3 f8 49 bd 51 8a d9 3d
       -0.052249722 -0.05547041 -0.049309503 0.10622085
0002f0 bf 2c 60 3d cd d9 f2 3d f9 f3 94 bd 09 bb 09 3e
       0.054730173 0.118579485 -0.072730966 0.13450254
000300 18 d3 1e 3d 46 2b ef 3d 8c b3 eb bd 60 ae 8e 3d
       0.038775533 0.11678176 -0.11508855 0.06966853
000310 35 0b a2 3d b1 c4 9c 3c fd ce fd bd b6 9a b7 bc
       0.07912294 0.019136759 -0.123929955 -0.02241264

lstm.bias_hh_l0 f4 [200]
000000 28 60 88 bc a5 63 d6 bd 13 39 67 bd 98 fd c8 bd
       -0.016647413 -0.104682244 -0.056450915 -0.09813994
000010 0c cf 8e 3d cf 17 83 bd f6 ce a8 3c 98 fc cb bc
       0.06973085 -0.064010255 0.0206065 -0.02490072
000020 f7 f1 95 3d 92 36 cc 3c c8 93 d4 bd 16 17 8b 3d
       0.07321542 0.024928365 -0.103797495 0.06791513
000030 b8 09 16 be 78 d1 fc bd 4e 1b d1 3d ab 0e 27 3e
       -0.14652145 -0.123446405 0.10210286 0.16314189
000040 5d 05 fb 3c 90 22 67 bd f8 cb 0e be b2 fd 55 be
       0.030642206 -0.056429446 -0.13944995 -0.20897558
000050 05 b7 a3 3c 8b 9c 55 3e c0 47 f9 3d 9a a0 d4 bc
       0.019984731 0.20860498 0.12171888 -0.025955487
000060 ab 2a a7 3c 6b 87 5b bd 79 b2 33 3c bb 2c 55 3d
       0.020406088 -0.05359594 0.010967844 0.05204461
000070 d3 87 ef bd c1 b0 ae bd df 93 08 3e 5c 90 35 bc
       -0.11695828 -0.08529807 0.13337658 -0.011081781
000080 9e 77 c0 bd ed 10 09 3e 89 c7 e7 3d 5a 1a e8 bc
       -0.09397815 0.13385363 0.11317355 -0.028332878
000090 c0 f5 01 be d8 e4 d2 3c 09 00 e9 3d 59 4e 84 3d
       -0.12691402 0.025743887 0.1137696 0.06460256
0000a0 c9 67 0e 3d 27 c9 a3 3d 1a 79 a2 3d c7 74 80 bd
       0.034766946 0.07997351 0.079332545 -0.062722735
0000b0 d6 cc bc 3d f3 fc ac 3d cd 7d 0b be 36 59 35 bd
       0.09218757 0.08446684 -0.13622208 -0.04427453
0000c0 10 4b cb 3c d0 42 17 3e 72 c6 78 bd 76 ed 22 3d
       0.024816066 0.1477158 -0.060736127 0.03977724
0000d0 a9 ef 73 bd 09 de b5 3d 0b b4 18 3e 9c 28 08 be
       -0.05955473 0.088802405 0.14912431 -0.13296741
0000e0 37 c9 02 3b 7c 1b 35 bd 57 3c e7 bc 3f 3b db 3d
       0.001995636 -0.044215664 -0.028227014 0.1070466
0000f0 70 d1 9e bd 74 a5 e9 bd 21 77 d0 bd 53 8f 02 bb
       -0.07754791 -0.11408511 -0.10178972 -0.0019921854
000100 f2 51 57 3d df 6a 87 bd 39 c9 fd 3c 05 ff 2c be
       0.052568384 -0.06612181 0.03097974 -0.16894157
000110 32 d6 ba bd fd da 09 be d7 f0 04 3e ba 49 8e 3d
       -0.09122886 -0.13462444 0.12982498 0.06947656
000120 22 58 c6 3c 65 a6 ba 3d d9 f0 96 bd f8 56 94 bd
       0.024211947 0.091137685 -0.07370157 -0.072431505
000130 9f fc 61 b9 c8 d4 9f 3d ea 9f 96 3c ff 55 07 3c
       -0.00021551781 0.07804257 0.0183868 0.008260249
000140 ee 2c bf bd 3d e1 18 3e 1a 04 f5 bd f3 39 28 bd
       -0.093347415 0.14929672 -0.11963673 -0.04107089
000150 e4 f0 92 3a f0 14 b5 3d e4 ab 3e bc 3d d0 91 bd
       0.0011210707 0.08841884 -0.011637662 -0.071197964
000160 68 54 5a bd ba b9 c9 3d 12 a4 31 3d be 21 52 3c
       -0.053303152 0.09849878 0.04336936 0.012825428
000170 66 e9 40 3d 6e 7e 88 bd 16 37 fa bd 95 a0 bf 3d
       0.047097586 -0.066647395 -0.12217538 0.093568005
000180 8a 5c ac 3d 71 9c 74 bd 78 b1 0c be da b3 1d 3c
       0.08416088 -0.059719507 -0.13739574 0.0096253995
000190 61 32 ed bc 1f 73 56 3d 17 b7 c7 3c 23 b3 09 bd
       -0.028954687 0.05235588 0.024379296 -0.033618104
0001a0 57 09 19 bd ee 98 6c 3c c0 c0 26 bd 7c b6 01 3d
       -0.037362423 0.014440758 -0.040711164 0.03166817
0001b0 d9 a5 12 be 34 b4 c3 bc ed 43 7e 3d 14 39 06 be
       -0.14321078 -0.023889638 0.062076498 -0.13107711
0001c0 5b e1 06 bd ad fa 4d 3c bd 44 a3 3d 61 1e 84 3b
       -0.03292976 0.012571973 0.07972095 0.0040319418
0001d0 56 ed c9 bc 86 99 82 ba c6 27 70 3b 78 69 1f 3d
       -0.024649303 -0.0009963966 0.00366448 0.038918942
0001e0 dc 25 7f 3d 8f ca 8a bd 21 32 aa 3d c7 81 dd bd
       0.062291965 -0.06776916 0.083103426 -0.10815769
0001f0 b9 3c ae 3d 93 e9 3a bd 85 0c 63 3d 82 4e 0b bd
       0.08507676 -0.04563291 0.05543186 -0.034010418
000200 b5 60 b9 bd 00 af a9 bb 56 39 c4 bd 07 35 af bd
       -0.090516485 -0.0051783323 -0.095812485 -0.08555036
000210 d2 ce 05 bd 07 5c ed bd 29 e9 df 3d 0e 92 56 3d
       -0.032667942 -0.115898184 0.10933144 0.052385382
000220 10 22 13 3d a6 48 8a 3d ea ae 96 3d f1 9e a5 3c
       0.035921156 0.06752138 0.07357581 0.02021739
000230 db 5f 91 bc 3c e6 d6 bc cc 99 bd 3d f5 c9 c3 3c
       -0.017745903 -0.026232831 0.0925785 0.023900012
000240 2a e9 f3 3d 77 7f 78 3d 5c 16 df bc e3 33 61 bd
       0.11909707 0.060668435 -0.027232341 -0.054981124
000250 98 b1 3c ba f3 a7 dd bb ff 64 bd bd a8 d1 ea 3c
       -0.00071980944 -0.006764406 -0.09247779 0.028664425
000260 e6 d9 95 3d 3d fc c8 3c 98 c1 1b 3e 8c df b6 3b
       0.073169515 0.02453434 0.15210569 0.005580848
000270 5c af 39 bd 30 c0 43 be 4f 9c f6 3d c3 e7 c9 bb
       -0.04533325 -0.19116282 0.12041532 -0.0061616614
000280 0e 54 c4 bd 3e 62 83 3d 76 a8 e7 bd f5 85 45 be
       -0.09586345 0.064152226 -0.11311428 -0.19289382
000290 2b 06 35 bd f8 d7 a0 bb 49 89 ad bd 7b f9 12 be
       -0.044195335 -0.004908558 -0.08473451 -0.14352982
0002a0 9c 7d 13 3b c1 c3 04 bd b1 0f b4 bd 29 f5 03 3e
       0.002250529 -0.032413248 -0.087920554 0.1288649
0002b0 3c 90 3e bd 4a 58 1e 3e 83 09 9a bd 4a 99 e1 3c
       -0.04652427 0.15463367 -0.075213455 0.027538914
0002c0 09 4a f0 3d ec 9a bc 3c 1d 1d c6 bc c7 65 86 3c
       0.11732871 0.023023091 -0.024183804 0.016405953
0002d0 d3 18 c9 3d cc 43 a4 3d 86 50 96 3c ae 95 a6 bc
       0.09819188 0.08020744 0.018348943 -0.020335045
0002e0 9d 14 8d bd c5 82 07 3e 5b 5a b0 3b 3d 81 fd bd
       -0.06888697 0.13233478 0.005381865 -0.12378166
0002f0 07 cf a0 bd e5 99 b0 3d b4 05 3c 3e c3 01 d8 bc
       -0.07851987 0.08623103 0.1836155 -0.026368028
000300 e2 75 ff 3d 0f 91 1c 3e 01 e0 55 3d fc 23 01 bd
       0.12473656 0.1528971 0.05221558 -0.031528458
000310 db e7 0a be c8 1a 00 3c 47 5c e9 3d cf 09 25 3d
       -0.13565008 0.007818885 0.11394554 0.040292557

fc.weight f4 [1, 50]
000000 1e 75 33 bd d5 25 2a 3d 1b 63 50 bd cc 41 77 3c
       -0.043812864 0.041539986 -0.050875764 0.015091371
000010 b0 1c df 3d 7a 2c 5e 3d 9d b4 c1 bb 93 83 96 bd
       0.108941436 0.054241635 -0.0059114234 -0.073493145
000020 b8 33 f5 3a 6e ef 39 3e 85 5c 15 3e e4 e4 e9 bd
       0.001870743 0.18157741 0.14586075 -0.114206105
000030 52 42 24 3d c6 3d 38 bd cc f8 00 3e 11 d8 1d 3e
       0.04010231 -0.044980787 0.12594908 0.15414454
000040 c7 f2 b0 3c 80 9f 60 3d 95 42 0e 3d e6 c9 3e 3d
       0.02160014 0.05483961 0.034731466 0.046579264
000050 fc 4f 19 be bc 81 20 3e a6 dd 15 3e e8 ca 97 bd
       -0.14971918 0.1567449 0.14635333 -0.07411748
000060 07 bc 87 bd ea 1b b3 bd 8a 20 16 be a8 10 9f 3d
       -0.0662766 -0.087455586 -0.1466085 0.07766849
000070 b5 d3 f9 bd 33 0d d7 bd e6 18 c7 3d 39 88 40 bc
       -0.12198583 -0.105005644 0.09721546 -0.011751228
000080 15 f3 10 be 1a ba cc bd 94 30 ea 3c 6b 02 06 3e
       -0.14155228 -0.099964336 0.028587617 0.1308686
000090 d8 3d 9b ba 4a 31 ff bd 7d cf 38 3e 4c 62 59 be
       -0.0011843992 -0.12460573 0.180479 -0.21228904
0000a0 e3 2a 8f bd 47 7e da 3d 12 0a 00 3e 6b 62 e4 bd
       -0.06990602 0.10668617 0.12503842 -0.11151584
0000b0 a6 d6 b0 3c 7b ad b6 bd fc b3 43 bc ad b2 13 be
       0.021586727 -0.089198075 -0.011944767 -0.14423628
0000c0 55 09 db 3d ad 77 a1 bd
       0.10695139 -0.078841545
